…
            "2024-01-24 05:18:33.343158: E external/local_xla/xla/stream_executor/cuda/cuda_fft.cc:607] Unable to register cuFFT factory: Attempting to register factory for plugin cuFFT when one has already been registered\n",
            "2024-01-24 05:18:33.454758: E external/local_xla/xla/stream_executor/cuda/cuda_blas.cc:1515] Unable to register cuBLAS factory: Attempting to register factory for plugin cuBLAS when one has already been registered\n",
            "Overriding model.yaml nc=1000 with nc=4\n",
            "\n",
            "                   from  n    params  module                                       arguments                     \n",
            "  0                  -1  1      1392  ultralytics.nn.modules.conv.Conv             [3, 48, 3, 2]                 \n",
            "  1                  -1  1     41664  ultralytics.nn.modules.conv.Conv             [48, 96, 3, 2]                \n",
            "  2                  -1  2    111360  ultralytics.nn.modules.block.C2f             [96, 96, 2, True]             \n",
            "  3                  -1  1    166272  ultralytics.nn.modules.conv.Conv             [96, 192, 3, 2]               \n",
            "  4                  -1  4    813312  ultralytics.nn.modules.block.C2f             [192, 192, 4, True]           \n",
            "  5                  -1  1    664320  ultralytics.nn.modules.conv.Conv             [192, 384, 3, 2]              \n",
            "  6                  -1  4   3248640  ultralytics.nn.modules.block.C2f             [384, 384, 4, True]           \n",
            "  7                  -1  1   2655744  ultralytics.nn.modules.conv.Conv             [384, 768, 3, 2]              \n",
            "  8                  -1  2   7084032  ultralytics.nn.modules.block.C2f             [768, 768, 2, True]           \n",
            "  9                  -1  1    990724  ultralytics.nn.modules.head.Classify         [768, 4]                      \n",
            "YOLOv8m-cls summary: 141 layers, 15777460 parameters, 15777460 gradients, 41.9 GFLOPs\n",
            "Transferred 228/230 items from pretrained weights\n",
            "\u001b[34m\u001b[1mTensorBoard: \u001b[0mStart with 'tensorboard --logdir runs/classify/train', view at http://localhost:6006/\n",
            "\u001b[34m\u001b[1mAMP: \u001b[0mrunning Automatic Mixed Precision (AMP) checks with YOLOv8n...\n",
…
